…
    (19): Conv2d (512, 512, kernel_size=(3, 3), stride=(1, 1), padding=(1, 1))
    (20): ReLU(inplace)
    (21): Conv2d (512, 512, kernel_size=(3, 3), stride=(1, 1), padding=(1, 1))
    (22): ReLU(inplace)
    (23): MaxPool2d(kernel_size=(2, 2), stride=(2, 2), dilation=(1, 1))
    (24): Conv2d (512, 512, kernel_size=(3, 3), stride=(1, 1), padding=(1, 1))
    (25): ReLU(inplace)
    (26): Conv2d (512, 512, kernel_size=(3, 3), stride=(1, 1), padding=(1, 1))
    (27): ReLU(inplace)
    (28): Conv2d (512, 512, kernel_size=(3, 3), stride=(1, 1), padding=(1, 1))
    (29): ReLU(inplace)
  )
  (classifier): Sequential(
    (0): Dropout(p=0.5)
    (1): Linear(in_features=1024, out_features=20)
  )
  (shallow_classifier): Sequential(
    (0): Dropout(p=0.5)
    (1): Linear(in_features=1024, out_features=20)
  )
  (downsampling): Sequential(
    (0): BasicConv(
      (conv): Conv2d (512, 1024, kernel_size=(3, 3), stride=(1, 1), bias=False)
      (bn): BatchNorm2d(1024, eps=1e-05, momentum=0.01, affine=True)
      (relu): ReLU(inplace)
    )
    (1): BasicConv(
      (conv): Conv2d (1024, 1024, kernel_size=(3, 3), stride=(1, 1), bias=False)
      (bn): BatchNorm2d(1024, eps=1e-05, momentum=0.01, affine=True)
      (relu): ReLU(inplace)
    )
    (2): BasicConv(
      (conv): Conv2d (1024, 1024, kernel_size=(3, 3), stride=(1, 1), bias=False)
      (bn): BatchNorm2d(1024, eps=1e-05, momentum=0.01, affine=True)
      (relu): ReLU(inplace)
    )
  )
  (vertical_conv1): Sequential(
    (0): BasicConv(
      (conv): Conv2d (512, 1024, kernel_size=(1, 1), stride=(1, 1), bias=False)
      (bn): BatchNorm2d(1024, eps=1e-05, momentum=0.01, affine=True)
      (relu): ReLU(inplace)
    )
    (1): BasicConv(
      (conv): Conv2d (1024, 1024, kernel_size=(1, 1), stride=(1, 1), bias=False)
      (bn): BatchNorm2d(1024, eps=1e-05, momentum=0.01, affine=True)
      (relu): ReLU(inplace)
    )
    (2): BasicConv(
      (conv): Conv2d (1024, 1024, kernel_size=(1, 1), stride=(1, 1), bias=False)
      (bn): BatchNorm2d(1024, eps=1e-05, momentum=0.01, affine=True)
      (relu): ReLU(inplace)
    )
    (3): BasicConv(
      (conv): Conv2d (1024, 1024, kernel_size=(1, 1), stride=(1, 1), bias=False)
      (bn): BatchNorm2d(1024, eps=1e-05, momentum=0.01, affine=True)
      (relu): ReLU(inplace)
    )
  )
  (downsampling2): Sequential(
    (0): BasicConv(
      (conv): Conv2d (1024, 1024, kernel_size=(3, 3), stride=(1, 1), bias=False)
      (bn): BatchNorm2d(1024, eps=1e-05, momentum=0.01, affine=True)
      (relu): ReLU(inplace)
    )
    (1): BasicConv(
      (conv): Conv2d (1024, 1024, kernel_size=(3, 3), stride=(1, 1), bias=False)
      (bn): BatchNorm2d(1024, eps=1e-05, momentum=0.01, affine=True)
      (relu): ReLU(inplace)
    )
    (2): BasicConv(
      (conv): Conv2d (1024, 1024, kernel_size=(3, 3), stride=(1, 1), bias=False)
      (bn): BatchNorm2d(1024, eps=1e-05, momentum=0.01, affine=True)
      (relu): ReLU(inplace)
    )
  )
  (vertical2_conv1): Sequential(
    (0): BasicConv(
      (conv): Conv2d (1024, 1024, kernel_size=(1, 1), stride=(1, 1), bias=False)
      (bn): BatchNorm2d(1024, eps=1e-05, momentum=0.01, affine=True)
      (relu): ReLU(inplace)
    )
    (1): BasicConv(
      (conv): Conv2d (1024, 1024, kernel_size=(1, 1), stride=(1, 1), bias=False)
      (bn): BatchNorm2d(1024, eps=1e-05, momentum=0.01, affine=True)
      (relu): ReLU(inplace)
    )
    (2): BasicConv(
      (conv): Conv2d (1024, 1024, kernel_size=(1, 1), stride=(1, 1), bias=False)
      (bn): BatchNorm2d(1024, eps=1e-05, momentum=0.01, affine=True)
      (relu): ReLU(inplace)
    )
    (3): BasicConv(
      (conv): Conv2d (1024, 1024, kernel_size=(1, 1), stride=(1, 1), bias=False)
      (bn): BatchNorm2d(1024, eps=1e-05, momentum=0.01, affine=True)
      (relu): ReLU(inplace)
    )
  )
  (sp_module): Sequential(
    (adconv): Conv2d (3072, 1024, kernel_size=(3, 3), stride=(1, 1), padding=(1, 1), groups=2)
    (maps): ReLU()
    (sp): SoftProposal([couple=True,factor=None])
  )
  (sso_module): Sequential(
    (sso): SpatialSumOverMap
  )
  (shallow_sso): Sequential(
    (sso): SpatialSumOverMap
  )
…
